…
 [0. 0. 1.]
 [0. 0. 1.]
 [0. 0. 1.]
 [0. 0. 1.]
 [0. 0. 1.]
 [0. 0. 1.]
 [0. 0. 1.]
 [0. 0. 1.]
 [0. 0. 1.]
 [0. 0. 1.]
 [0. 0. 1.]
 [0. 0. 1.]
 [0. 0. 1.]
 [0. 0. 1.]
 [0. 0. 1.]]
[DEBUG] x_train.shape = (50, 256, 256, 1)
[DEBUG] x_test.shape = (13, 256, 256, 1)
[DEBUG] y_train.shape = (50, 3)
[DEBUG] y_test.shape = (13, 3)
[DEBUG] num_classes = 3
[DEBUG] input_shape(256, 256, 1)
_________________________________________________________________
Layer (type)                 Output Shape              Param #
=================================================================
conv2d_1 (Conv2D)            (None, 256, 256, 32)      320
_________________________________________________________________
dropout_1 (Dropout)          (None, 256, 256, 32)      0
_________________________________________________________________
conv2d_2 (Conv2D)            (None, 256, 256, 32)      9248
_________________________________________________________________
max_pooling2d_1 (MaxPooling2 (None, 128, 128, 32)      0
_________________________________________________________________
flatten_1 (Flatten)          (None, 524288)            0
_________________________________________________________________
dense_1 (Dense)              (None, 512)               268435968
_________________________________________________________________
dropout_2 (Dropout)          (None, 512)               0
_________________________________________________________________
dense_2 (Dense)              (None, 3)                 1539
=================================================================
Total params: 268,447,075
Trainable params: 268,447,075
Non-trainable params: 0
_________________________________________________________________
[DEBUG] model.summary() = None
Train on 50 samples, validate on 13 samples
Epoch 1/25
2018-07-04 00:29:00.812035: I T:\src\github\tensorflow\tensorflow\core\platform\cpu_feature_guard.cc:140] Your CPU supports instructions that this TensorFlow binary was not compiled to use: AVX2
…
