…
[INFO] y_categorical = [[0. 0. 0. ... 0. 0. 1.]
 [0. 0. 0. ... 0. 0. 1.]
 [0. 0. 0. ... 0. 0. 1.]
 ...
 [0. 0. 0. ... 0. 0. 0.]
 [0. 0. 0. ... 0. 0. 0.]
 [0. 0. 0. ... 0. 0. 0.]]
[DEBUG] x_train.shape = (33, 256, 256, 1)
[DEBUG] x_test.shape = (9, 256, 256, 1)
[DEBUG] y_train.shape = (33, 978)
[DEBUG] y_test.shape = (9, 978)
[DEBUG] input_shape(256, 256, 1)
[DEBUG] user_data_len = 2
_________________________________________________________________
Layer (type)                 Output Shape              Param #
=================================================================
conv2d_1 (Conv2D)            (None, 256, 256, 32)      320
_________________________________________________________________
dropout_1 (Dropout)          (None, 256, 256, 32)      0
_________________________________________________________________
conv2d_2 (Conv2D)            (None, 256, 256, 32)      9248
_________________________________________________________________
max_pooling2d_1 (MaxPooling2 (None, 128, 128, 32)      0
_________________________________________________________________
flatten_1 (Flatten)          (None, 524288)            0
_________________________________________________________________
dense_1 (Dense)              (None, 512)               268435968
_________________________________________________________________
dropout_2 (Dropout)          (None, 512)               0
_________________________________________________________________
dense_2 (Dense)              (None, 978)               501714
=================================================================
Total params: 268,947,250
Trainable params: 268,947,250
Non-trainable params: 0
_________________________________________________________________
[DEBUG] model.summary() = None
Train on 33 samples, validate on 9 samples
Epoch 1/25
2018-06-30 14:06:00.837622: W T:\src\github\tensorflow\tensorflow\core\framework\allocator.cc:101] Allocation of 1073741824 exceeds 10% of system memory.
…
